…
Validation directory: indian_currency_dataset/val
Initial epochs: 15
Fine-tune epochs: 10
Batch size: 16
======================================================================
Creating MobileNetV2-based model...
✓ Model created successfully

Model architecture:
Model: "model"
_________________________________________________________________
 Layer (type)                Output Shape              Param #   
=================================================================
 input_2 (InputLayer)        [(None, 224, 224, 3)]     0         
                                                                 
 tf.math.truediv (TFOpLambd  (None, 224, 224, 3)       0         
 a)                                                              
                                                                 
 tf.math.subtract (TFOpLamb  (None, 224, 224, 3)       0         
 da)                                                             
                                                                 
 mobilenetv2_1.00_224 (Func  (None, 7, 7, 1280)        2257984   
 tional)                                                         
                                                                 
 global_average_pooling2d (  (None, 1280)              0         
 GlobalAveragePooling2D)                                         
                                                                 
 dropout (Dropout)           (None, 1280)              0         
                                                                 
 dense (Dense)               (None, 256)               327936    
                                                                 
 dropout_1 (Dropout)         (None, 256)               0         
                                                                 
 dense_1 (Dense)             (None, 128)               32896     
                                                                 
 dense_2 (Dense)             (None, 2)                 258       
                                                                 
=================================================================
Total params: 2619074 (9.99 MB)
Trainable params: 361090 (1.38 MB)
Non-trainable params: 2257984 (8.61 MB)
_________________________________________________________________
Creating data generators with augmentation...
Found 48 images belonging to 2 classes.
Found 12 images belonging to 2 classes.
…
